…
back trial, choosing to sit in the arm that had song playback. The change in place preference was significant across the population. Statistical analysis was performed using a two-tailed t-test (p = 0.02). Box plot reports median, 25th and 75th percentile and whiskers mark the 10th and 90th percentiles with single data points plotted on the left.

### Extended Data Table 1. Siamese Convolutional Neural Network.

Parameters for the sCNN used in this research.

| Layer (type) | Output Shape | Param # |
| :-- | :-: | :-: |
| input\_1 (InputLayer) | \[(None, 28, 28, 3)\] | 0 |
| conv2d (Conv2D) | (None, 28, 28, 32) | 896 |
| batch\_normalization | (BatchNo (None, 28, 28, 32) | 128 |
| conv2d\_1 (Conv2D) | (None, 14, 14, 32) | 9248 |
| batch\_normalization\_1 | (Batch (None, 14, 14, 32) | 128 |
| dropout (Dropout) | (None, 14, 14, 32) | 0 |
| conv2d\_2 (Conv2D) | (None, 14, 14, 32) | 9248 |
| batch\_normalization\_2 | (Batch (None, 14, 14, 32) | 128 |
| dropout\_1 (Dropout) | (None, 14, 14, 32) | 0 |
| conv2d\_3 (Conv2D) | (None, 14, 14, 32) | 9248 |
| batch\_normalization\_3 | (Batch (None, 14, 14, 32) | 128 |
| dropout\_2 (Dropout) | (None, 14, 14, 32) | 0 |
| conv2d\_4 (Conv2D) | (None, 7, 7, 32) | 9248 |
| batch\_normalization\_4 | (Batch (None, 7, 7, 32) | 128 |
| dropout\_3 (Dropout) | (None, 7, 7, 32) | 0 |
| conv2d\_5 (Conv2D) | (None, 7, 7, 32) | 9248 |
| batch\_normalization\_5 | (Batch (None, 7, 7, 32) | 128 |
| dropout\_4 (Dropout) | (None, 7, 7, 32) | 0 |
| conv2d\_6 (Conv2D) | (None, 4, 4, 32) | 9248 |
| batch\_normalization\_6 | (Batch (None, 4, 4, 32) | 128 |
| dropout\_5 (Dropout) | (None, 4, 4, 32) | 0 |
| conv2d\_7 (Conv2D) | (None, 4, 4, 32) | 9248 |
| batch\_normalization\_7 | (Batch (None, 4, 4, 32) | 128 |
| dropout\_6 (Dropout) | (None, 4, 4, 32) | 0 |
| conv2d\_8 (Conv2D) | (None, 4, 4, 64) | 18496 |
| batch\_normalization\_8 | (Batch (None, 4, 4, 64) | 256 |
| dropout\_7 (Dropout) | (None, 4, 4, 64) | 0 |
| conv2d\_9 (Conv2D) | (None, 4, 4, 64) | 36928 |
| batch\_normalization\_9 | (Batch (None, 4, 4, 64) | 256 |
| dropout\_8 (Dropout) | (None, 4, 4, 64) | 0 |
| dense (Dense) | (None, 4, 4, 1024) | 66560 |
| batch\_normalization\_10 | (Batc (None, 4, 4, 1024) | 4096 |
| dropout\_9 (Dropout) | (None, 4, 4, 1024) | 0 |
| conv2d\_10 (Conv2D) | (None, 4, 4, 64) | 589888 |
| batch\_normalization\_11 | (Batc (None, 4, 4, 64) | 256 |
| dropout\_10 (Dropout) | (None, 4, 4, 64) | 0 |
| conv2d\_11 (Conv2D) | (None, 4, 4, 128) | 73856 |
| batch\_normalization\_12 | (Batc (None, 4, 4, 128) | 512 |
| dropout\_11 (Dropout) | (None, 4, 4, 128) | 0 |
| eonv2d\_12 (Conv2D) | (None, 4, 4, 128) | 147584 |
| batch\_normalization\_13 | (Batc (None, 4, 4, 128) | 512 |
| dropout\_12 (Dropout) | (None, 4, 4, 128) | 0 |
| conv2d\_13 (Conv2D) | (None, 2, 2, 128) | 147584 |
| batch\_normalization\_14 | (Batc (None, 2, 2, 128) | 512 |
| dropout\_13 (Dropout) | (None, 2, 2, 128) | 0 |
| conv2d\_14 (Conv2D) | (None, 2, 2, 128) | 147584 |
| batch\_normalization\_15 | (Batc (None, 2, 2, 128) | 512 |
| conv2d\_15 (Conv2D) | (None, 2, 2, 128) | 147584 |
| batch\_normalization\_16 | (Batc (None, 2, 2, 128) | 512 |
| dropout\_14 (Dropout) | (None, 2, 2, 128) | 0 |
| conv2d\_16 (Conv2D) | (None, 2, 2, 128) | 147584 |
| batch\_normalization\_17 | (Batc (None, 2, 2, 128) | 512 |
| max\_pooling2d (MaxPooling2D) | (None, 1, 1, 128) | 0 |
| flatten (Flatten) | (None, 128) | 0 |
| dropout\_15 (Dropout) | (None, 128) | 0 |
| dense\_1 (Dense) | (None, 2048) | 264192 |
| batch\_normalization\_18 | (Batc (None, 2048) | 8192 |
| dropout\_16 | (Dropout) (None, 2048) | 0 |
| dense\_2 (Dense) | (None, 1024) | 2098176 |
| batch\_normalization\_19 | (Batc (None, 1024) | 4096 |
| dropout\_17 (Dropout) | (None, 1024) | 0 |
| dense\_3 (Dense) | (None, 512) | 524800 |
| batch\_normalization\_20 | (Batc (None, 512) | 2048 |
| dropout\_18 | (Dropout) (None, 512) | 0 |
| dense\_4 (Dense) | (None, 10) | 5130 |

[Open in a new tab](https://pmc.ncbi.nlm.nih.gov/articles/PMC11410162/table/T1/)

Total params: 4,504,874

Trainable params: 4,493,226

Non-trainable params: 11,648

### Extended Data Table 2. Linear regression analysis of SAP features across UMAP latent space.

Linear regression analysis of SAP features across UMAP latent space (UMAP1 and UMAP2) revealed weak, yet highly significant correlati
…
